{
  "transform_params" : {
    "image" : {
      "bias_a" : 0,
      "bias_g" : 0,
      "bias_r" : 0,
      "bias_b" : 0,
      "center_mean" : 0,
      "is_network_bgr" : 0,
      "scale" : 1
    }
  },
  "properties" : {

  },
  "storage" : "model.espresso.weights",
  "format_version" : 200,
  "layers" : [
    {
      "pad_r" : 0,
      "fused_relu" : 0,
      "fused_tanh" : 0,
      "pad_fill_mode" : 0,
      "pad_b" : 0,
      "pad_l" : 0,
      "top" : "transformer_conv0_fwd",
      "blob_weights" : 1,
      "K" : 3,
      "name" : "transformer_conv0_fwd",
      "has_batch_norm" : 0,
      "type" : "convolution",
      "n_groups" : 1,
      "pad_t" : 0,
      "has_biases" : 0,
      "C" : 32,
      "bottom" : "image",
      "weights" : {

      },
      "pad_mode" : 4,
      "Nx" : 9,
      "pad_value" : 0,
      "Ny" : 9,
      "n_parallel" : 1
    },
    {
      "nB" : 8,
      "top" : "transformer_instancenorm0_embedding0",
      "has_biases" : 0,
      "name" : "transformer_instancenorm0_embedding0",
      "nC" : 32,
      "blob_weights" : 3,
      "type" : "inner_product",
      "has_relu" : 0,
      "bottom" : "index",
      "has_tanh" : 0,
      "weights" : {

      },
      "has_prelu" : 0
    },
    {
      "nB" : 8,
      "top" : "transformer_instancenorm0_embedding1",
      "has_biases" : 0,
      "name" : "transformer_instancenorm0_embedding1",
      "nC" : 32,
      "blob_weights" : 5,
      "type" : "inner_product",
      "has_relu" : 0,
      "bottom" : "index",
      "has_tanh" : 0,
      "weights" : {

      },
      "has_prelu" : 0
    },
    {
      "bottom" : "transformer_conv0_fwd",
      "training_instancenorm" : 1,
      "training_momentum" : 0.89999997615814209,
      "training" : 1,
      "blob_batchnorm_params" : 7,
      "weights" : {

      },
      "training_eps" : 9.9999997473787516e-06,
      "top" : "transformer_instancenorm0__fwd_bn_",
      "C" : 32,
      "type" : "batchnorm",
      "name" : "transformer_instancenorm0__fwd_normalize"
    },
    {
      "alpha" : 1,
      "bottom" : "transformer_instancenorm0__fwd_bn_,transformer_instancenorm0_embedding0",
      "operation" : 1,
      "weights" : {

      },
      "fused_relu" : 0,
      "top" : "transformer_instancenorm0__fwd_mult_gamma",
      "type" : "elementwise",
      "name" : "transformer_instancenorm0__fwd_mult_gamma",
      "beta" : 0
    },
    {
      "alpha" : 1,
      "bottom" : "transformer_instancenorm0__fwd_mult_gamma,transformer_instancenorm0_embedding1",
      "operation" : 0,
      "weights" : {

      },
      "fused_relu" : 0,
      "top" : "transformer_instancenorm0__fwd",
      "type" : "elementwise",
      "name" : "transformer_instancenorm0__fwd_add_beta",
      "beta" : 0
    },
    {
      "mode" : 0,
      "weights" : {

      },
      "top" : "transformer_activation0",
      "type" : "activation",
      "name" : "transformer_activation0",
      "bottom" : "transformer_instancenorm0__fwd"
    },
    {
      "pad_r" : 0,
      "fused_relu" : 0,
      "fused_tanh" : 0,
      "pad_fill_mode" : 0,
      "pad_b" : 0,
      "pad_l" : 0,
      "top" : "transformer_conv1_fwd",
      "blob_weights" : 9,
      "K" : 32,
      "stride_x" : 2,
      "name" : "transformer_conv1_fwd",
      "has_batch_norm" : 0,
      "type" : "convolution",
      "n_groups" : 1,
      "pad_t" : 0,
      "stride_y" : 2,
      "has_biases" : 0,
      "C" : 64,
      "bottom" : "transformer_activation0",
      "weights" : {

      },
      "Nx" : 3,
      "pad_mode" : 4,
      "pad_value" : 0,
      "Ny" : 3,
      "n_parallel" : 1
    },
    {
      "nB" : 8,
      "top" : "transformer_instancenorm1_embedding0",
      "has_biases" : 0,
      "name" : "transformer_instancenorm1_embedding0",
      "nC" : 64,
      "blob_weights" : 11,
      "type" : "inner_product",
      "has_relu" : 0,
      "bottom" : "index",
      "has_tanh" : 0,
      "weights" : {

      },
      "has_prelu" : 0
    },
    {
      "nB" : 8,
      "top" : "transformer_instancenorm1_embedding1",
      "has_biases" : 0,
      "name" : "transformer_instancenorm1_embedding1",
      "nC" : 64,
      "blob_weights" : 13,
      "type" : "inner_product",
      "has_relu" : 0,
      "bottom" : "index",
      "has_tanh" : 0,
      "weights" : {

      },
      "has_prelu" : 0
    },
    {
      "bottom" : "transformer_conv1_fwd",
      "training_instancenorm" : 1,
      "training_momentum" : 0.89999997615814209,
      "training" : 1,
      "blob_batchnorm_params" : 15,
      "weights" : {

      },
      "training_eps" : 9.9999997473787516e-06,
      "top" : "transformer_instancenorm1__fwd_bn_",
      "C" : 64,
      "type" : "batchnorm",
      "name" : "transformer_instancenorm1__fwd_normalize"
    },
    {
      "alpha" : 1,
      "bottom" : "transformer_instancenorm1__fwd_bn_,transformer_instancenorm1_embedding0",
      "operation" : 1,
      "weights" : {

      },
      "fused_relu" : 0,
      "top" : "transformer_instancenorm1__fwd_mult_gamma",
      "type" : "elementwise",
      "name" : "transformer_instancenorm1__fwd_mult_gamma",
      "beta" : 0
    },
    {
      "alpha" : 1,
      "bottom" : "transformer_instancenorm1__fwd_mult_gamma,transformer_instancenorm1_embedding1",
      "operation" : 0,
      "weights" : {

      },
      "fused_relu" : 0,
      "top" : "transformer_instancenorm1__fwd",
      "type" : "elementwise",
      "name" : "transformer_instancenorm1__fwd_add_beta",
      "beta" : 0
    },
    {
      "mode" : 0,
      "weights" : {

      },
      "top" : "transformer_activation1",
      "type" : "activation",
      "name" : "transformer_activation1",
      "bottom" : "transformer_instancenorm1__fwd"
    },
    {
      "pad_r" : 0,
      "fused_relu" : 0,
      "fused_tanh" : 0,
      "pad_fill_mode" : 0,
      "pad_b" : 0,
      "pad_l" : 0,
      "top" : "transformer_conv2_fwd",
      "blob_weights" : 17,
      "K" : 64,
      "stride_x" : 2,
      "name" : "transformer_conv2_fwd",
      "has_batch_norm" : 0,
      "type" : "convolution",
      "n_groups" : 1,
      "pad_t" : 0,
      "stride_y" : 2,
      "has_biases" : 0,
      "C" : 128,
      "bottom" : "transformer_activation1",
      "weights" : {

      },
      "Nx" : 3,
      "pad_mode" : 4,
      "pad_value" : 0,
      "Ny" : 3,
      "n_parallel" : 1
    },
    {
      "nB" : 8,
      "top" : "transformer_instancenorm2_embedding0",
      "has_biases" : 0,
      "name" : "transformer_instancenorm2_embedding0",
      "nC" : 128,
      "blob_weights" : 19,
      "type" : "inner_product",
      "has_relu" : 0,
      "bottom" : "index",
      "has_tanh" : 0,
      "weights" : {

      },
      "has_prelu" : 0
    },
    {
      "nB" : 8,
      "top" : "transformer_instancenorm2_embedding1",
      "has_biases" : 0,
      "name" : "transformer_instancenorm2_embedding1",
      "nC" : 128,
      "blob_weights" : 21,
      "type" : "inner_product",
      "has_relu" : 0,
      "bottom" : "index",
      "has_tanh" : 0,
      "weights" : {

      },
      "has_prelu" : 0
    },
    {
      "bottom" : "transformer_conv2_fwd",
      "training_instancenorm" : 1,
      "training_momentum" : 0.89999997615814209,
      "training" : 1,
      "blob_batchnorm_params" : 23,
      "weights" : {

      },
      "training_eps" : 9.9999997473787516e-06,
      "top" : "transformer_instancenorm2__fwd_bn_",
      "C" : 128,
      "type" : "batchnorm",
      "name" : "transformer_instancenorm2__fwd_normalize"
    },
    {
      "alpha" : 1,
      "bottom" : "transformer_instancenorm2__fwd_bn_,transformer_instancenorm2_embedding0",
      "operation" : 1,
      "weights" : {

      },
      "fused_relu" : 0,
      "top" : "transformer_instancenorm2__fwd_mult_gamma",
      "type" : "elementwise",
      "name" : "transformer_instancenorm2__fwd_mult_gamma",
      "beta" : 0
    },
    {
      "alpha" : 1,
      "bottom" : "transformer_instancenorm2__fwd_mult_gamma,transformer_instancenorm2_embedding1",
      "operation" : 0,
      "weights" : {

      },
      "fused_relu" : 0,
      "top" : "transformer_instancenorm2__fwd",
      "type" : "elementwise",
      "name" : "transformer_instancenorm2__fwd_add_beta",
      "beta" : 0
    },
    {
      "mode" : 0,
      "weights" : {

      },
      "top" : "transformer_activation2",
      "type" : "activation",
      "name" : "transformer_activation2",
      "bottom" : "transformer_instancenorm2__fwd"
    },
    {
      "pad_r" : 0,
      "fused_relu" : 0,
      "fused_tanh" : 0,
      "pad_fill_mode" : 0,
      "pad_b" : 0,
      "pad_l" : 0,
      "top" : "transformer_residualblock0_conv0_fwd",
      "blob_weights" : 25,
      "K" : 128,
      "name" : "transformer_residualblock0_conv0_fwd",
      "has_batch_norm" : 0,
      "type" : "convolution",
      "n_groups" : 1,
      "pad_t" : 0,
      "has_biases" : 0,
      "C" : 128,
      "bottom" : "transformer_activation2",
      "weights" : {

      },
      "pad_mode" : 4,
      "Nx" : 3,
      "pad_value" : 0,
      "Ny" : 3,
      "n_parallel" : 1
    },
    {
      "nB" : 8,
      "top" : "transformer_residualblock0_instancenorm0_embedding0",
      "has_biases" : 0,
      "name" : "transformer_residualblock0_instancenorm0_embedding0",
      "nC" : 128,
      "blob_weights" : 27,
      "type" : "inner_product",
      "has_relu" : 0,
      "bottom" : "index",
      "has_tanh" : 0,
      "weights" : {

      },
      "has_prelu" : 0
    },
    {
      "nB" : 8,
      "top" : "transformer_residualblock0_instancenorm0_embedding1",
      "has_biases" : 0,
      "name" : "transformer_residualblock0_instancenorm0_embedding1",
      "nC" : 128,
      "blob_weights" : 29,
      "type" : "inner_product",
      "has_relu" : 0,
      "bottom" : "index",
      "has_tanh" : 0,
      "weights" : {

      },
      "has_prelu" : 0
    },
    {
      "bottom" : "transformer_residualblock0_conv0_fwd",
      "training_instancenorm" : 1,
      "training_momentum" : 0.89999997615814209,
      "training" : 1,
      "blob_batchnorm_params" : 31,
      "weights" : {

      },
      "training_eps" : 9.9999997473787516e-06,
      "top" : "transformer_residualblock0_instancenorm0__fwd_bn_",
      "C" : 128,
      "type" : "batchnorm",
      "name" : "transformer_residualblock0_instancenorm0__fwd_normalize"
    },
    {
      "alpha" : 1,
      "bottom" : "transformer_residualblock0_instancenorm0__fwd_bn_,transformer_residualblock0_instancenorm0_embedding0",
      "operation" : 1,
      "weights" : {

      },
      "fused_relu" : 0,
      "top" : "transformer_residualblock0_instancenorm0__fwd_mult_gamma",
      "type" : "elementwise",
      "name" : "transformer_residualblock0_instancenorm0__fwd_mult_gamma",
      "beta" : 0
    },
    {
      "alpha" : 1,
      "bottom" : "transformer_residualblock0_instancenorm0__fwd_mult_gamma,transformer_residualblock0_instancenorm0_embedding1",
      "operation" : 0,
      "weights" : {

      },
      "fused_relu" : 0,
      "top" : "transformer_residualblock0_instancenorm0__fwd",
      "type" : "elementwise",
      "name" : "transformer_residualblock0_instancenorm0__fwd_add_beta",
      "beta" : 0
    },
    {
      "mode" : 0,
      "weights" : {

      },
      "top" : "transformer_residualblock0_activation0",
      "type" : "activation",
      "name" : "transformer_residualblock0_activation0",
      "bottom" : "transformer_residualblock0_instancenorm0__fwd"
    },
    {
      "pad_r" : 0,
      "fused_relu" : 0,
      "fused_tanh" : 0,
      "pad_fill_mode" : 0,
      "pad_b" : 0,
      "pad_l" : 0,
      "top" : "transformer_residualblock0_conv1_fwd",
      "blob_weights" : 33,
      "K" : 128,
      "name" : "transformer_residualblock0_conv1_fwd",
      "has_batch_norm" : 0,
      "type" : "convolution",
      "n_groups" : 1,
      "pad_t" : 0,
      "has_biases" : 0,
      "C" : 128,
      "bottom" : "transformer_residualblock0_activation0",
      "weights" : {

      },
      "pad_mode" : 4,
      "Nx" : 3,
      "pad_value" : 0,
      "Ny" : 3,
      "n_parallel" : 1
    },
    {
      "nB" : 8,
      "top" : "transformer_residualblock0_instancenorm1_embedding0",
      "has_biases" : 0,
      "name" : "transformer_residualblock0_instancenorm1_embedding0",
      "nC" : 128,
      "blob_weights" : 35,
      "type" : "inner_product",
      "has_relu" : 0,
      "bottom" : "index",
      "has_tanh" : 0,
      "weights" : {

      },
      "has_prelu" : 0
    },
    {
      "nB" : 8,
      "top" : "transformer_residualblock0_instancenorm1_embedding1",
      "has_biases" : 0,
      "name" : "transformer_residualblock0_instancenorm1_embedding1",
      "nC" : 128,
      "blob_weights" : 37,
      "type" : "inner_product",
      "has_relu" : 0,
      "bottom" : "index",
      "has_tanh" : 0,
      "weights" : {

      },
      "has_prelu" : 0
    },
    {
      "bottom" : "transformer_residualblock0_conv1_fwd",
      "training_instancenorm" : 1,
      "training_momentum" : 0.89999997615814209,
      "training" : 1,
      "blob_batchnorm_params" : 39,
      "weights" : {

      },
      "training_eps" : 9.9999997473787516e-06,
      "top" : "transformer_residualblock0_instancenorm1__fwd_bn_",
      "C" : 128,
      "type" : "batchnorm",
      "name" : "transformer_residualblock0_instancenorm1__fwd_normalize"
    },
    {
      "alpha" : 1,
      "bottom" : "transformer_residualblock0_instancenorm1__fwd_bn_,transformer_residualblock0_instancenorm1_embedding0",
      "operation" : 1,
      "weights" : {

      },
      "fused_relu" : 0,
      "top" : "transformer_residualblock0_instancenorm1__fwd_mult_gamma",
      "type" : "elementwise",
      "name" : "transformer_residualblock0_instancenorm1__fwd_mult_gamma",
      "beta" : 0
    },
    {
      "alpha" : 1,
      "bottom" : "transformer_residualblock0_instancenorm1__fwd_mult_gamma,transformer_residualblock0_instancenorm1_embedding1",
      "operation" : 0,
      "weights" : {

      },
      "fused_relu" : 0,
      "top" : "transformer_residualblock0_instancenorm1__fwd",
      "type" : "elementwise",
      "name" : "transformer_residualblock0_instancenorm1__fwd_add_beta",
      "beta" : 0
    },
    {
      "alpha" : 1,
      "bottom" : "transformer_activation2,transformer_residualblock0_instancenorm1__fwd",
      "operation" : 0,
      "weights" : {

      },
      "fused_relu" : 0,
      "top" : "transformer_residualblock0__plus0",
      "type" : "elementwise",
      "name" : "transformer_residualblock0__plus0",
      "beta" : 0
    },
    {
      "pad_r" : 0,
      "fused_relu" : 0,
      "fused_tanh" : 0,
      "pad_fill_mode" : 0,
      "pad_b" : 0,
      "pad_l" : 0,
      "top" : "transformer_residualblock1_conv0_fwd",
      "blob_weights" : 41,
      "K" : 128,
      "name" : "transformer_residualblock1_conv0_fwd",
      "has_batch_norm" : 0,
      "type" : "convolution",
      "n_groups" : 1,
      "pad_t" : 0,
      "has_biases" : 0,
      "C" : 128,
      "bottom" : "transformer_residualblock0__plus0",
      "weights" : {

      },
      "pad_mode" : 4,
      "Nx" : 3,
      "pad_value" : 0,
      "Ny" : 3,
      "n_parallel" : 1
    },
    {
      "nB" : 8,
      "top" : "transformer_residualblock1_instancenorm0_embedding0",
      "has_biases" : 0,
      "name" : "transformer_residualblock1_instancenorm0_embedding0",
      "nC" : 128,
      "blob_weights" : 43,
      "type" : "inner_product",
      "has_relu" : 0,
      "bottom" : "index",
      "has_tanh" : 0,
      "weights" : {

      },
      "has_prelu" : 0
    },
    {
      "nB" : 8,
      "top" : "transformer_residualblock1_instancenorm0_embedding1",
      "has_biases" : 0,
      "name" : "transformer_residualblock1_instancenorm0_embedding1",
      "nC" : 128,
      "blob_weights" : 45,
      "type" : "inner_product",
      "has_relu" : 0,
      "bottom" : "index",
      "has_tanh" : 0,
      "weights" : {

      },
      "has_prelu" : 0
    },
    {
      "bottom" : "transformer_residualblock1_conv0_fwd",
      "training_instancenorm" : 1,
      "training_momentum" : 0.89999997615814209,
      "training" : 1,
      "blob_batchnorm_params" : 47,
      "weights" : {

      },
      "training_eps" : 9.9999997473787516e-06,
      "top" : "transformer_residualblock1_instancenorm0__fwd_bn_",
      "C" : 128,
      "type" : "batchnorm",
      "name" : "transformer_residualblock1_instancenorm0__fwd_normalize"
    },
    {
      "alpha" : 1,
      "bottom" : "transformer_residualblock1_instancenorm0__fwd_bn_,transformer_residualblock1_instancenorm0_embedding0",
      "operation" : 1,
      "weights" : {

      },
      "fused_relu" : 0,
      "top" : "transformer_residualblock1_instancenorm0__fwd_mult_gamma",
      "type" : "elementwise",
      "name" : "transformer_residualblock1_instancenorm0__fwd_mult_gamma",
      "beta" : 0
    },
    {
      "alpha" : 1,
      "bottom" : "transformer_residualblock1_instancenorm0__fwd_mult_gamma,transformer_residualblock1_instancenorm0_embedding1",
      "operation" : 0,
      "weights" : {

      },
      "fused_relu" : 0,
      "top" : "transformer_residualblock1_instancenorm0__fwd",
      "type" : "elementwise",
      "name" : "transformer_residualblock1_instancenorm0__fwd_add_beta",
      "beta" : 0
    },
    {
      "mode" : 0,
      "weights" : {

      },
      "top" : "transformer_residualblock1_activation0",
      "type" : "activation",
      "name" : "transformer_residualblock1_activation0",
      "bottom" : "transformer_residualblock1_instancenorm0__fwd"
    },
    {
      "pad_r" : 0,
      "fused_relu" : 0,
      "fused_tanh" : 0,
      "pad_fill_mode" : 0,
      "pad_b" : 0,
      "pad_l" : 0,
      "top" : "transformer_residualblock1_conv1_fwd",
      "blob_weights" : 49,
      "K" : 128,
      "name" : "transformer_residualblock1_conv1_fwd",
      "has_batch_norm" : 0,
      "type" : "convolution",
      "n_groups" : 1,
      "pad_t" : 0,
      "has_biases" : 0,
      "C" : 128,
      "bottom" : "transformer_residualblock1_activation0",
      "weights" : {

      },
      "pad_mode" : 4,
      "Nx" : 3,
      "pad_value" : 0,
      "Ny" : 3,
      "n_parallel" : 1
    },
    {
      "nB" : 8,
      "top" : "transformer_residualblock1_instancenorm1_embedding0",
      "has_biases" : 0,
      "name" : "transformer_residualblock1_instancenorm1_embedding0",
      "nC" : 128,
      "blob_weights" : 51,
      "type" : "inner_product",
      "has_relu" : 0,
      "bottom" : "index",
      "has_tanh" : 0,
      "weights" : {

      },
      "has_prelu" : 0
    },
    {
      "nB" : 8,
      "top" : "transformer_residualblock1_instancenorm1_embedding1",
      "has_biases" : 0,
      "name" : "transformer_residualblock1_instancenorm1_embedding1",
      "nC" : 128,
      "blob_weights" : 53,
      "type" : "inner_product",
      "has_relu" : 0,
      "bottom" : "index",
      "has_tanh" : 0,
      "weights" : {

      },
      "has_prelu" : 0
    },
    {
      "bottom" : "transformer_residualblock1_conv1_fwd",
      "training_instancenorm" : 1,
      "training_momentum" : 0.89999997615814209,
      "training" : 1,
      "blob_batchnorm_params" : 55,
      "weights" : {

      },
      "training_eps" : 9.9999997473787516e-06,
      "top" : "transformer_residualblock1_instancenorm1__fwd_bn_",
      "C" : 128,
      "type" : "batchnorm",
      "name" : "transformer_residualblock1_instancenorm1__fwd_normalize"
    },
    {
      "alpha" : 1,
      "bottom" : "transformer_residualblock1_instancenorm1__fwd_bn_,transformer_residualblock1_instancenorm1_embedding0",
      "operation" : 1,
      "weights" : {

      },
      "fused_relu" : 0,
      "top" : "transformer_residualblock1_instancenorm1__fwd_mult_gamma",
      "type" : "elementwise",
      "name" : "transformer_residualblock1_instancenorm1__fwd_mult_gamma",
      "beta" : 0
    },
    {
      "alpha" : 1,
      "bottom" : "transformer_residualblock1_instancenorm1__fwd_mult_gamma,transformer_residualblock1_instancenorm1_embedding1",
      "operation" : 0,
      "weights" : {

      },
      "fused_relu" : 0,
      "top" : "transformer_residualblock1_instancenorm1__fwd",
      "type" : "elementwise",
      "name" : "transformer_residualblock1_instancenorm1__fwd_add_beta",
      "beta" : 0
    },
    {
      "alpha" : 1,
      "bottom" : "transformer_residualblock0__plus0,transformer_residualblock1_instancenorm1__fwd",
      "operation" : 0,
      "weights" : {

      },
      "fused_relu" : 0,
      "top" : "transformer_residualblock1__plus0",
      "type" : "elementwise",
      "name" : "transformer_residualblock1__plus0",
      "beta" : 0
    },
    {
      "pad_r" : 0,
      "fused_relu" : 0,
      "fused_tanh" : 0,
      "pad_fill_mode" : 0,
      "pad_b" : 0,
      "pad_l" : 0,
      "top" : "transformer_residualblock2_conv0_fwd",
      "blob_weights" : 57,
      "K" : 128,
      "name" : "transformer_residualblock2_conv0_fwd",
      "has_batch_norm" : 0,
      "type" : "convolution",
      "n_groups" : 1,
      "pad_t" : 0,
      "has_biases" : 0,
      "C" : 128,
      "bottom" : "transformer_residualblock1__plus0",
      "weights" : {

      },
      "pad_mode" : 4,
      "Nx" : 3,
      "pad_value" : 0,
      "Ny" : 3,
      "n_parallel" : 1
    },
    {
      "nB" : 8,
      "top" : "transformer_residualblock2_instancenorm0_embedding0",
      "has_biases" : 0,
      "name" : "transformer_residualblock2_instancenorm0_embedding0",
      "nC" : 128,
      "blob_weights" : 59,
      "type" : "inner_product",
      "has_relu" : 0,
      "bottom" : "index",
      "has_tanh" : 0,
      "weights" : {

      },
      "has_prelu" : 0
    },
    {
      "nB" : 8,
      "top" : "transformer_residualblock2_instancenorm0_embedding1",
      "has_biases" : 0,
      "name" : "transformer_residualblock2_instancenorm0_embedding1",
      "nC" : 128,
      "blob_weights" : 61,
      "type" : "inner_product",
      "has_relu" : 0,
      "bottom" : "index",
      "has_tanh" : 0,
      "weights" : {

      },
      "has_prelu" : 0
    },
    {
      "bottom" : "transformer_residualblock2_conv0_fwd",
      "training_instancenorm" : 1,
      "training_momentum" : 0.89999997615814209,
      "training" : 1,
      "blob_batchnorm_params" : 63,
      "weights" : {

      },
      "training_eps" : 9.9999997473787516e-06,
      "top" : "transformer_residualblock2_instancenorm0__fwd_bn_",
      "C" : 128,
      "type" : "batchnorm",
      "name" : "transformer_residualblock2_instancenorm0__fwd_normalize"
    },
    {
      "alpha" : 1,
      "bottom" : "transformer_residualblock2_instancenorm0__fwd_bn_,transformer_residualblock2_instancenorm0_embedding0",
      "operation" : 1,
      "weights" : {

      },
      "fused_relu" : 0,
      "top" : "transformer_residualblock2_instancenorm0__fwd_mult_gamma",
      "type" : "elementwise",
      "name" : "transformer_residualblock2_instancenorm0__fwd_mult_gamma",
      "beta" : 0
    },
    {
      "alpha" : 1,
      "bottom" : "transformer_residualblock2_instancenorm0__fwd_mult_gamma,transformer_residualblock2_instancenorm0_embedding1",
      "operation" : 0,
      "weights" : {

      },
      "fused_relu" : 0,
      "top" : "transformer_residualblock2_instancenorm0__fwd",
      "type" : "elementwise",
      "name" : "transformer_residualblock2_instancenorm0__fwd_add_beta",
      "beta" : 0
    },
    {
      "mode" : 0,
      "weights" : {

      },
      "top" : "transformer_residualblock2_activation0",
      "type" : "activation",
      "name" : "transformer_residualblock2_activation0",
      "bottom" : "transformer_residualblock2_instancenorm0__fwd"
    },
    {
      "pad_r" : 0,
      "fused_relu" : 0,
      "fused_tanh" : 0,
      "pad_fill_mode" : 0,
      "pad_b" : 0,
      "pad_l" : 0,
      "top" : "transformer_residualblock2_conv1_fwd",
      "blob_weights" : 65,
      "K" : 128,
      "name" : "transformer_residualblock2_conv1_fwd",
      "has_batch_norm" : 0,
      "type" : "convolution",
      "n_groups" : 1,
      "pad_t" : 0,
      "has_biases" : 0,
      "C" : 128,
      "bottom" : "transformer_residualblock2_activation0",
      "weights" : {

      },
      "pad_mode" : 4,
      "Nx" : 3,
      "pad_value" : 0,
      "Ny" : 3,
      "n_parallel" : 1
    },
    {
      "nB" : 8,
      "top" : "transformer_residualblock2_instancenorm1_embedding0",
      "has_biases" : 0,
      "name" : "transformer_residualblock2_instancenorm1_embedding0",
      "nC" : 128,
      "blob_weights" : 67,
      "type" : "inner_product",
      "has_relu" : 0,
      "bottom" : "index",
      "has_tanh" : 0,
      "weights" : {

      },
      "has_prelu" : 0
    },
    {
      "nB" : 8,
      "top" : "transformer_residualblock2_instancenorm1_embedding1",
      "has_biases" : 0,
      "name" : "transformer_residualblock2_instancenorm1_embedding1",
      "nC" : 128,
      "blob_weights" : 69,
      "type" : "inner_product",
      "has_relu" : 0,
      "bottom" : "index",
      "has_tanh" : 0,
      "weights" : {

      },
      "has_prelu" : 0
    },
    {
      "bottom" : "transformer_residualblock2_conv1_fwd",
      "training_instancenorm" : 1,
      "training_momentum" : 0.89999997615814209,
      "training" : 1,
      "blob_batchnorm_params" : 71,
      "weights" : {

      },
      "training_eps" : 9.9999997473787516e-06,
      "top" : "transformer_residualblock2_instancenorm1__fwd_bn_",
      "C" : 128,
      "type" : "batchnorm",
      "name" : "transformer_residualblock2_instancenorm1__fwd_normalize"
    },
    {
      "alpha" : 1,
      "bottom" : "transformer_residualblock2_instancenorm1__fwd_bn_,transformer_residualblock2_instancenorm1_embedding0",
      "operation" : 1,
      "weights" : {

      },
      "fused_relu" : 0,
      "top" : "transformer_residualblock2_instancenorm1__fwd_mult_gamma",
      "type" : "elementwise",
      "name" : "transformer_residualblock2_instancenorm1__fwd_mult_gamma",
      "beta" : 0
    },
    {
      "alpha" : 1,
      "bottom" : "transformer_residualblock2_instancenorm1__fwd_mult_gamma,transformer_residualblock2_instancenorm1_embedding1",
      "operation" : 0,
      "weights" : {

      },
      "fused_relu" : 0,
      "top" : "transformer_residualblock2_instancenorm1__fwd",
      "type" : "elementwise",
      "name" : "transformer_residualblock2_instancenorm1__fwd_add_beta",
      "beta" : 0
    },
    {
      "alpha" : 1,
      "bottom" : "transformer_residualblock1__plus0,transformer_residualblock2_instancenorm1__fwd",
      "operation" : 0,
      "weights" : {

      },
      "fused_relu" : 0,
      "top" : "transformer_residualblock2__plus0",
      "type" : "elementwise",
      "name" : "transformer_residualblock2__plus0",
      "beta" : 0
    },
    {
      "pad_r" : 0,
      "fused_relu" : 0,
      "fused_tanh" : 0,
      "pad_fill_mode" : 0,
      "pad_b" : 0,
      "pad_l" : 0,
      "top" : "transformer_residualblock3_conv0_fwd",
      "blob_weights" : 73,
      "K" : 128,
      "name" : "transformer_residualblock3_conv0_fwd",
      "has_batch_norm" : 0,
      "type" : "convolution",
      "n_groups" : 1,
      "pad_t" : 0,
      "has_biases" : 0,
      "C" : 128,
      "bottom" : "transformer_residualblock2__plus0",
      "weights" : {

      },
      "pad_mode" : 4,
      "Nx" : 3,
      "pad_value" : 0,
      "Ny" : 3,
      "n_parallel" : 1
    },
    {
      "nB" : 8,
      "top" : "transformer_residualblock3_instancenorm0_embedding0",
      "has_biases" : 0,
      "name" : "transformer_residualblock3_instancenorm0_embedding0",
      "nC" : 128,
      "blob_weights" : 75,
      "type" : "inner_product",
      "has_relu" : 0,
      "bottom" : "index",
      "has_tanh" : 0,
      "weights" : {

      },
      "has_prelu" : 0
    },
    {
      "nB" : 8,
      "top" : "transformer_residualblock3_instancenorm0_embedding1",
      "has_biases" : 0,
      "name" : "transformer_residualblock3_instancenorm0_embedding1",
      "nC" : 128,
      "blob_weights" : 77,
      "type" : "inner_product",
      "has_relu" : 0,
      "bottom" : "index",
      "has_tanh" : 0,
      "weights" : {

      },
      "has_prelu" : 0
    },
    {
      "bottom" : "transformer_residualblock3_conv0_fwd",
      "training_instancenorm" : 1,
      "training_momentum" : 0.89999997615814209,
      "training" : 1,
      "blob_batchnorm_params" : 79,
      "weights" : {

      },
      "training_eps" : 9.9999997473787516e-06,
      "top" : "transformer_residualblock3_instancenorm0__fwd_bn_",
      "C" : 128,
      "type" : "batchnorm",
      "name" : "transformer_residualblock3_instancenorm0__fwd_normalize"
    },
    {
      "alpha" : 1,
      "bottom" : "transformer_residualblock3_instancenorm0__fwd_bn_,transformer_residualblock3_instancenorm0_embedding0",
      "operation" : 1,
      "weights" : {

      },
      "fused_relu" : 0,
      "top" : "transformer_residualblock3_instancenorm0__fwd_mult_gamma",
      "type" : "elementwise",
      "name" : "transformer_residualblock3_instancenorm0__fwd_mult_gamma",
      "beta" : 0
    },
    {
      "alpha" : 1,
      "bottom" : "transformer_residualblock3_instancenorm0__fwd_mult_gamma,transformer_residualblock3_instancenorm0_embedding1",
      "operation" : 0,
      "weights" : {

      },
      "fused_relu" : 0,
      "top" : "transformer_residualblock3_instancenorm0__fwd",
      "type" : "elementwise",
      "name" : "transformer_residualblock3_instancenorm0__fwd_add_beta",
      "beta" : 0
    },
    {
      "mode" : 0,
      "weights" : {

      },
      "top" : "transformer_residualblock3_activation0",
      "type" : "activation",
      "name" : "transformer_residualblock3_activation0",
      "bottom" : "transformer_residualblock3_instancenorm0__fwd"
    },
    {
      "pad_r" : 0,
      "fused_relu" : 0,
      "fused_tanh" : 0,
      "pad_fill_mode" : 0,
      "pad_b" : 0,
      "pad_l" : 0,
      "top" : "transformer_residualblock3_conv1_fwd",
      "blob_weights" : 81,
      "K" : 128,
      "name" : "transformer_residualblock3_conv1_fwd",
      "has_batch_norm" : 0,
      "type" : "convolution",
      "n_groups" : 1,
      "pad_t" : 0,
      "has_biases" : 0,
      "C" : 128,
      "bottom" : "transformer_residualblock3_activation0",
      "weights" : {

      },
      "pad_mode" : 4,
      "Nx" : 3,
      "pad_value" : 0,
      "Ny" : 3,
      "n_parallel" : 1
    },
    {
      "nB" : 8,
      "top" : "transformer_residualblock3_instancenorm1_embedding0",
      "has_biases" : 0,
      "name" : "transformer_residualblock3_instancenorm1_embedding0",
      "nC" : 128,
      "blob_weights" : 83,
      "type" : "inner_product",
      "has_relu" : 0,
      "bottom" : "index",
      "has_tanh" : 0,
      "weights" : {

      },
      "has_prelu" : 0
    },
    {
      "nB" : 8,
      "top" : "transformer_residualblock3_instancenorm1_embedding1",
      "has_biases" : 0,
      "name" : "transformer_residualblock3_instancenorm1_embedding1",
      "nC" : 128,
      "blob_weights" : 85,
      "type" : "inner_product",
      "has_relu" : 0,
      "bottom" : "index",
      "has_tanh" : 0,
      "weights" : {

      },
      "has_prelu" : 0
    },
    {
      "bottom" : "transformer_residualblock3_conv1_fwd",
      "training_instancenorm" : 1,
      "training_momentum" : 0.89999997615814209,
      "training" : 1,
      "blob_batchnorm_params" : 87,
      "weights" : {

      },
      "training_eps" : 9.9999997473787516e-06,
      "top" : "transformer_residualblock3_instancenorm1__fwd_bn_",
      "C" : 128,
      "type" : "batchnorm",
      "name" : "transformer_residualblock3_instancenorm1__fwd_normalize"
    },
    {
      "alpha" : 1,
      "bottom" : "transformer_residualblock3_instancenorm1__fwd_bn_,transformer_residualblock3_instancenorm1_embedding0",
      "operation" : 1,
      "weights" : {

      },
      "fused_relu" : 0,
      "top" : "transformer_residualblock3_instancenorm1__fwd_mult_gamma",
      "type" : "elementwise",
      "name" : "transformer_residualblock3_instancenorm1__fwd_mult_gamma",
      "beta" : 0
    },
    {
      "alpha" : 1,
      "bottom" : "transformer_residualblock3_instancenorm1__fwd_mult_gamma,transformer_residualblock3_instancenorm1_embedding1",
      "operation" : 0,
      "weights" : {

      },
      "fused_relu" : 0,
      "top" : "transformer_residualblock3_instancenorm1__fwd",
      "type" : "elementwise",
      "name" : "transformer_residualblock3_instancenorm1__fwd_add_beta",
      "beta" : 0
    },
    {
      "alpha" : 1,
      "bottom" : "transformer_residualblock2__plus0,transformer_residualblock3_instancenorm1__fwd",
      "operation" : 0,
      "weights" : {

      },
      "fused_relu" : 0,
      "top" : "transformer_residualblock3__plus0",
      "type" : "elementwise",
      "name" : "transformer_residualblock3__plus0",
      "beta" : 0
    },
    {
      "pad_r" : 0,
      "fused_relu" : 0,
      "fused_tanh" : 0,
      "pad_fill_mode" : 0,
      "pad_b" : 0,
      "pad_l" : 0,
      "top" : "transformer_residualblock4_conv0_fwd",
      "blob_weights" : 89,
      "K" : 128,
      "name" : "transformer_residualblock4_conv0_fwd",
      "has_batch_norm" : 0,
      "type" : "convolution",
      "n_groups" : 1,
      "pad_t" : 0,
      "has_biases" : 0,
      "C" : 128,
      "bottom" : "transformer_residualblock3__plus0",
      "weights" : {

      },
      "pad_mode" : 4,
      "Nx" : 3,
      "pad_value" : 0,
      "Ny" : 3,
      "n_parallel" : 1
    },
    {
      "nB" : 8,
      "top" : "transformer_residualblock4_instancenorm0_embedding0",
      "has_biases" : 0,
      "name" : "transformer_residualblock4_instancenorm0_embedding0",
      "nC" : 128,
      "blob_weights" : 91,
      "type" : "inner_product",
      "has_relu" : 0,
      "bottom" : "index",
      "has_tanh" : 0,
      "weights" : {

      },
      "has_prelu" : 0
    },
    {
      "nB" : 8,
      "top" : "transformer_residualblock4_instancenorm0_embedding1",
      "has_biases" : 0,
      "name" : "transformer_residualblock4_instancenorm0_embedding1",
      "nC" : 128,
      "blob_weights" : 93,
      "type" : "inner_product",
      "has_relu" : 0,
      "bottom" : "index",
      "has_tanh" : 0,
      "weights" : {

      },
      "has_prelu" : 0
    },
    {
      "bottom" : "transformer_residualblock4_conv0_fwd",
      "training_instancenorm" : 1,
      "training_momentum" : 0.89999997615814209,
      "training" : 1,
      "blob_batchnorm_params" : 95,
      "weights" : {

      },
      "training_eps" : 9.9999997473787516e-06,
      "top" : "transformer_residualblock4_instancenorm0__fwd_bn_",
      "C" : 128,
      "type" : "batchnorm",
      "name" : "transformer_residualblock4_instancenorm0__fwd_normalize"
    },
    {
      "alpha" : 1,
      "bottom" : "transformer_residualblock4_instancenorm0__fwd_bn_,transformer_residualblock4_instancenorm0_embedding0",
      "operation" : 1,
      "weights" : {

      },
      "fused_relu" : 0,
      "top" : "transformer_residualblock4_instancenorm0__fwd_mult_gamma",
      "type" : "elementwise",
      "name" : "transformer_residualblock4_instancenorm0__fwd_mult_gamma",
      "beta" : 0
    },
    {
      "alpha" : 1,
      "bottom" : "transformer_residualblock4_instancenorm0__fwd_mult_gamma,transformer_residualblock4_instancenorm0_embedding1",
      "operation" : 0,
      "weights" : {

      },
      "fused_relu" : 0,
      "top" : "transformer_residualblock4_instancenorm0__fwd",
      "type" : "elementwise",
      "name" : "transformer_residualblock4_instancenorm0__fwd_add_beta",
      "beta" : 0
    },
    {
      "mode" : 0,
      "weights" : {

      },
      "top" : "transformer_residualblock4_activation0",
      "type" : "activation",
      "name" : "transformer_residualblock4_activation0",
      "bottom" : "transformer_residualblock4_instancenorm0__fwd"
    },
    {
      "pad_r" : 0,
      "fused_relu" : 0,
      "fused_tanh" : 0,
      "pad_fill_mode" : 0,
      "pad_b" : 0,
      "pad_l" : 0,
      "top" : "transformer_residualblock4_conv1_fwd",
      "blob_weights" : 97,
      "K" : 128,
      "name" : "transformer_residualblock4_conv1_fwd",
      "has_batch_norm" : 0,
      "type" : "convolution",
      "n_groups" : 1,
      "pad_t" : 0,
      "has_biases" : 0,
      "C" : 128,
      "bottom" : "transformer_residualblock4_activation0",
      "weights" : {

      },
      "pad_mode" : 4,
      "Nx" : 3,
      "pad_value" : 0,
      "Ny" : 3,
      "n_parallel" : 1
    },
    {
      "nB" : 8,
      "top" : "transformer_residualblock4_instancenorm1_embedding0",
      "has_biases" : 0,
      "name" : "transformer_residualblock4_instancenorm1_embedding0",
      "nC" : 128,
      "blob_weights" : 99,
      "type" : "inner_product",
      "has_relu" : 0,
      "bottom" : "index",
      "has_tanh" : 0,
      "weights" : {

      },
      "has_prelu" : 0
    },
    {
      "nB" : 8,
      "top" : "transformer_residualblock4_instancenorm1_embedding1",
      "has_biases" : 0,
      "name" : "transformer_residualblock4_instancenorm1_embedding1",
      "nC" : 128,
      "blob_weights" : 101,
      "type" : "inner_product",
      "has_relu" : 0,
      "bottom" : "index",
      "has_tanh" : 0,
      "weights" : {

      },
      "has_prelu" : 0
    },
    {
      "bottom" : "transformer_residualblock4_conv1_fwd",
      "training_instancenorm" : 1,
      "training_momentum" : 0.89999997615814209,
      "training" : 1,
      "blob_batchnorm_params" : 103,
      "weights" : {

      },
      "training_eps" : 9.9999997473787516e-06,
      "top" : "transformer_residualblock4_instancenorm1__fwd_bn_",
      "C" : 128,
      "type" : "batchnorm",
      "name" : "transformer_residualblock4_instancenorm1__fwd_normalize"
    },
    {
      "alpha" : 1,
      "bottom" : "transformer_residualblock4_instancenorm1__fwd_bn_,transformer_residualblock4_instancenorm1_embedding0",
      "operation" : 1,
      "weights" : {

      },
      "fused_relu" : 0,
      "top" : "transformer_residualblock4_instancenorm1__fwd_mult_gamma",
      "type" : "elementwise",
      "name" : "transformer_residualblock4_instancenorm1__fwd_mult_gamma",
      "beta" : 0
    },
    {
      "alpha" : 1,
      "bottom" : "transformer_residualblock4_instancenorm1__fwd_mult_gamma,transformer_residualblock4_instancenorm1_embedding1",
      "operation" : 0,
      "weights" : {

      },
      "fused_relu" : 0,
      "top" : "transformer_residualblock4_instancenorm1__fwd",
      "type" : "elementwise",
      "name" : "transformer_residualblock4_instancenorm1__fwd_add_beta",
      "beta" : 0
    },
    {
      "alpha" : 1,
      "bottom" : "transformer_residualblock3__plus0,transformer_residualblock4_instancenorm1__fwd",
      "operation" : 0,
      "weights" : {

      },
      "fused_relu" : 0,
      "top" : "transformer_residualblock4__plus0",
      "type" : "elementwise",
      "name" : "transformer_residualblock4__plus0",
      "beta" : 0
    },
    {
      "bottom" : "transformer_residualblock4__plus0",
      "scaling_factor_y" : 2,
      "weights" : {

      },
      "mode" : 0,
      "top" : "transformer_upsampling0",
      "scaling_factor_x" : 2,
      "type" : "upsample",
      "name" : "transformer_upsampling0"
    },
    {
      "pad_r" : 0,
      "fused_relu" : 0,
      "fused_tanh" : 0,
      "pad_fill_mode" : 0,
      "pad_b" : 0,
      "pad_l" : 0,
      "top" : "transformer_conv3_fwd",
      "blob_weights" : 105,
      "K" : 128,
      "name" : "transformer_conv3_fwd",
      "has_batch_norm" : 0,
      "type" : "convolution",
      "n_groups" : 1,
      "pad_t" : 0,
      "has_biases" : 0,
      "C" : 64,
      "bottom" : "transformer_upsampling0",
      "weights" : {

      },
      "pad_mode" : 4,
      "Nx" : 3,
      "pad_value" : 0,
      "Ny" : 3,
      "n_parallel" : 1
    },
    {
      "nB" : 8,
      "top" : "transformer_instancenorm3_embedding0",
      "has_biases" : 0,
      "name" : "transformer_instancenorm3_embedding0",
      "nC" : 64,
      "blob_weights" : 107,
      "type" : "inner_product",
      "has_relu" : 0,
      "bottom" : "index",
      "has_tanh" : 0,
      "weights" : {

      },
      "has_prelu" : 0
    },
    {
      "nB" : 8,
      "top" : "transformer_instancenorm3_embedding1",
      "has_biases" : 0,
      "name" : "transformer_instancenorm3_embedding1",
      "nC" : 64,
      "blob_weights" : 109,
      "type" : "inner_product",
      "has_relu" : 0,
      "bottom" : "index",
      "has_tanh" : 0,
      "weights" : {

      },
      "has_prelu" : 0
    },
    {
      "bottom" : "transformer_conv3_fwd",
      "training_instancenorm" : 1,
      "training_momentum" : 0.89999997615814209,
      "training" : 1,
      "blob_batchnorm_params" : 111,
      "weights" : {

      },
      "training_eps" : 9.9999997473787516e-06,
      "top" : "transformer_instancenorm3__fwd_bn_",
      "C" : 64,
      "type" : "batchnorm",
      "name" : "transformer_instancenorm3__fwd_normalize"
    },
    {
      "alpha" : 1,
      "bottom" : "transformer_instancenorm3__fwd_bn_,transformer_instancenorm3_embedding0",
      "operation" : 1,
      "weights" : {

      },
      "fused_relu" : 0,
      "top" : "transformer_instancenorm3__fwd_mult_gamma",
      "type" : "elementwise",
      "name" : "transformer_instancenorm3__fwd_mult_gamma",
      "beta" : 0
    },
    {
      "alpha" : 1,
      "bottom" : "transformer_instancenorm3__fwd_mult_gamma,transformer_instancenorm3_embedding1",
      "operation" : 0,
      "weights" : {

      },
      "fused_relu" : 0,
      "top" : "transformer_instancenorm3__fwd",
      "type" : "elementwise",
      "name" : "transformer_instancenorm3__fwd_add_beta",
      "beta" : 0
    },
    {
      "mode" : 0,
      "weights" : {

      },
      "top" : "transformer_activation3",
      "type" : "activation",
      "name" : "transformer_activation3",
      "bottom" : "transformer_instancenorm3__fwd"
    },
    {
      "bottom" : "transformer_activation3",
      "scaling_factor_y" : 2,
      "weights" : {

      },
      "mode" : 0,
      "top" : "transformer_upsampling1",
      "scaling_factor_x" : 2,
      "type" : "upsample",
      "name" : "transformer_upsampling1"
    },
    {
      "pad_r" : 0,
      "fused_relu" : 0,
      "fused_tanh" : 0,
      "pad_fill_mode" : 0,
      "pad_b" : 0,
      "pad_l" : 0,
      "top" : "transformer_conv4_fwd",
      "blob_weights" : 113,
      "K" : 64,
      "name" : "transformer_conv4_fwd",
      "has_batch_norm" : 0,
      "type" : "convolution",
      "n_groups" : 1,
      "pad_t" : 0,
      "has_biases" : 0,
      "C" : 32,
      "bottom" : "transformer_upsampling1",
      "weights" : {

      },
      "pad_mode" : 4,
      "Nx" : 3,
      "pad_value" : 0,
      "Ny" : 3,
      "n_parallel" : 1
    },
    {
      "nB" : 8,
      "top" : "transformer_instancenorm4_embedding0",
      "has_biases" : 0,
      "name" : "transformer_instancenorm4_embedding0",
      "nC" : 32,
      "blob_weights" : 115,
      "type" : "inner_product",
      "has_relu" : 0,
      "bottom" : "index",
      "has_tanh" : 0,
      "weights" : {

      },
      "has_prelu" : 0
    },
    {
      "nB" : 8,
      "top" : "transformer_instancenorm4_embedding1",
      "has_biases" : 0,
      "name" : "transformer_instancenorm4_embedding1",
      "nC" : 32,
      "blob_weights" : 117,
      "type" : "inner_product",
      "has_relu" : 0,
      "bottom" : "index",
      "has_tanh" : 0,
      "weights" : {

      },
      "has_prelu" : 0
    },
    {
      "bottom" : "transformer_conv4_fwd",
      "training_instancenorm" : 1,
      "training_momentum" : 0.89999997615814209,
      "training" : 1,
      "blob_batchnorm_params" : 119,
      "weights" : {

      },
      "training_eps" : 9.9999997473787516e-06,
      "top" : "transformer_instancenorm4__fwd_bn_",
      "C" : 32,
      "type" : "batchnorm",
      "name" : "transformer_instancenorm4__fwd_normalize"
    },
    {
      "alpha" : 1,
      "bottom" : "transformer_instancenorm4__fwd_bn_,transformer_instancenorm4_embedding0",
      "operation" : 1,
      "weights" : {

      },
      "fused_relu" : 0,
      "top" : "transformer_instancenorm4__fwd_mult_gamma",
      "type" : "elementwise",
      "name" : "transformer_instancenorm4__fwd_mult_gamma",
      "beta" : 0
    },
    {
      "alpha" : 1,
      "bottom" : "transformer_instancenorm4__fwd_mult_gamma,transformer_instancenorm4_embedding1",
      "operation" : 0,
      "weights" : {

      },
      "fused_relu" : 0,
      "top" : "transformer_instancenorm4__fwd",
      "type" : "elementwise",
      "name" : "transformer_instancenorm4__fwd_add_beta",
      "beta" : 0
    },
    {
      "mode" : 0,
      "weights" : {

      },
      "top" : "transformer_activation4",
      "type" : "activation",
      "name" : "transformer_activation4",
      "bottom" : "transformer_instancenorm4__fwd"
    },
    {
      "pad_r" : 0,
      "fused_relu" : 0,
      "fused_tanh" : 0,
      "pad_fill_mode" : 0,
      "pad_b" : 0,
      "pad_l" : 0,
      "top" : "transformer_conv5_fwd",
      "blob_weights" : 121,
      "K" : 32,
      "name" : "transformer_conv5_fwd",
      "has_batch_norm" : 0,
      "type" : "convolution",
      "n_groups" : 1,
      "pad_t" : 0,
      "has_biases" : 0,
      "C" : 3,
      "bottom" : "transformer_activation4",
      "weights" : {

      },
      "pad_mode" : 4,
      "Nx" : 9,
      "pad_value" : 0,
      "Ny" : 9,
      "n_parallel" : 1
    },
    {
      "nB" : 8,
      "top" : "transformer_instancenorm5_embedding0",
      "has_biases" : 0,
      "name" : "transformer_instancenorm5_embedding0",
      "nC" : 3,
      "blob_weights" : 123,
      "type" : "inner_product",
      "has_relu" : 0,
      "bottom" : "index",
      "has_tanh" : 0,
      "weights" : {

      },
      "has_prelu" : 0
    },
    {
      "nB" : 8,
      "top" : "transformer_instancenorm5_embedding1",
      "has_biases" : 0,
      "name" : "transformer_instancenorm5_embedding1",
      "nC" : 3,
      "blob_weights" : 125,
      "type" : "inner_product",
      "has_relu" : 0,
      "bottom" : "index",
      "has_tanh" : 0,
      "weights" : {

      },
      "has_prelu" : 0
    },
    {
      "bottom" : "transformer_conv5_fwd",
      "training_instancenorm" : 1,
      "training_momentum" : 0.89999997615814209,
      "training" : 1,
      "blob_batchnorm_params" : 127,
      "weights" : {

      },
      "training_eps" : 9.9999997473787516e-06,
      "top" : "transformer_instancenorm5__fwd_bn_",
      "C" : 3,
      "type" : "batchnorm",
      "name" : "transformer_instancenorm5__fwd_normalize"
    },
    {
      "alpha" : 1,
      "bottom" : "transformer_instancenorm5__fwd_bn_,transformer_instancenorm5_embedding0",
      "operation" : 1,
      "weights" : {

      },
      "fused_relu" : 0,
      "top" : "transformer_instancenorm5__fwd_mult_gamma",
      "type" : "elementwise",
      "name" : "transformer_instancenorm5__fwd_mult_gamma",
      "beta" : 0
    },
    {
      "alpha" : 1,
      "bottom" : "transformer_instancenorm5__fwd_mult_gamma,transformer_instancenorm5_embedding1",
      "operation" : 0,
      "weights" : {

      },
      "fused_relu" : 0,
      "top" : "transformer_instancenorm5__fwd",
      "type" : "elementwise",
      "name" : "transformer_instancenorm5__fwd_add_beta",
      "beta" : 0
    },
    {
      "mode" : 3,
      "weights" : {

      },
      "top" : "transformer_activation5",
      "type" : "activation",
      "name" : "transformer_activation5",
      "bottom" : "transformer_instancenorm5__fwd"
    },
    {
      "k" : 1,
      "bottom" : "",
      "n" : 1,
      "weights" : {

      },
      "h" : 1,
      "constant_blob" : 129,
      "top" : "transformer__mulscalar0_output_constant_in_scale",
      "w" : 1,
      "type" : "load_constant",
      "name" : "transformer__mulscalar0_output"
    },
    {
      "alpha" : 1,
      "bottom" : "transformer_activation5,transformer__mulscalar0_output_constant_in_scale",
      "operation" : 1,
      "weights" : {

      },
      "fused_relu" : 0,
      "top" : "stylizedImage",
      "type" : "elementwise",
      "name" : "transformer__mulscalar0_output",
      "beta" : 0
    }
  ]
}